…
/usr/local/lib/python3.11/dist-packages/transformers/models/vit/feature_extraction_vit.py:28: FutureWarning: The class ViTFeatureExtractor is deprecated and will be removed in version 5 of Transformers. Please use ViTImageProcessor instead.
  warnings.warn(
tokenizer_config.json: 100%
 241/241 [00:00<00:00, 5.77kB/s]
vocab.json: 100%
 798k/798k [00:00<00:00, 5.61MB/s]
merges.txt: 100%
 456k/456k [00:00<00:00, 9.07MB/s]
tokenizer.json: 100%
 1.36M/1.36M [00:00<00:00, 21.1MB/s]
special_tokens_map.json: 100%
 120/120 [00:00<00:00, 1.11kB/s]
device = torch.device("cuda" if torch.cuda.is_available() else "cpu")
model.to(device)
VisionEncoderDecoderModel(
  (encoder): ViTModel(
    (embeddings): ViTEmbeddings(
      (patch_embeddings): ViTPatchEmbeddings(
        (projection): Conv2d(3, 768, kernel_size=(16, 16), stride=(16, 16))
      )
      (dropout): Dropout(p=0.0, inplace=False)
    )
    (encoder): ViTEncoder(
      (layer): ModuleList(
        (0-11): 12 x ViTLayer(
          (attention): ViTSdpaAttention(
            (attention): ViTSdpaSelfAttention(
              (query): Linear(in_features=768, out_features=768, bias=True)
              (key): Linear(in_features=768, out_features=768, bias=True)
              (value): Linear(in_features=768, out_features=768, bias=True)
              (dropout): Dropout(p=0.0, inplace=False)
            )
            (output): ViTSelfOutput(
              (dense): Linear(in_features=768, out_features=768, bias=True)
              (dropout): Dropout(p=0.0, inplace=False)
            )
          )
          (intermediate): ViTIntermediate(
            (dense): Linear(in_features=768, out_features=3072, bias=True)
            (intermediate_act_fn): GELUActivation()
          )
          (output): ViTOutput(
            (dense): Linear(in_features=3072, out_features=768, bias=True)
            (dropout): Dropout(p=0.0, inplace=False)
          )
          (layernorm_before): LayerNorm((768,), eps=1e-12, elementwise_affine=True)
          (layernorm_after): LayerNorm((768,), eps=1e-12, elementwise_affine=True)
        )
      )
    )
    (layernorm): LayerNorm((768,), eps=1e-12, elementwise_affine=True)
    (pooler): ViTPooler(
      (dense): Linear(in_features=768, out_features=768, bias=True)
      (activation): Tanh()
    )
  )
  (decoder): GPT2LMHeadModel(
    (transformer): GPT2Model(
      (wte): Embedding(50257, 768)
      (wpe): Embedding(1024, 768)
      (drop): Dropout(p=0.1, inplace=False)
      (h): ModuleList(
        (0-11): 12 x GPT2Block(
          (ln_1): LayerNorm((768,), eps=1e-05, elementwise_affine=True)
          (attn): GPT2Attention(
            (c_attn): Conv1D(nf=2304, nx=768)
            (c_proj): Conv1D(nf=768, nx=768)
            (attn_dropout): Dropout(p=0.1, inplace=False)
            (resid_dropout): Dropout(p=0.1, inplace=False)
          )
          (ln_2): LayerNorm((768,), eps=1e-05, elementwise_affine=True)
          (crossattention): GPT2Attention(
            (c_attn): Conv1D(nf=1536, nx=768)
            (q_attn): Conv1D(nf=768, nx=768)
            (c_proj): Conv1D(nf=768, nx=768)
            (attn_dropout): Dropout(p=0.1, inplace=False)
            (resid_dropout): Dropout(p=0.1, inplace=False)
          )
          (ln_cross_attn): LayerNorm((768,), eps=1e-05, elementwise_affine=True)
          (mlp): GPT2MLP(
            (c_fc): Conv1D(nf=3072, nx=768)
            (c_proj): Conv1D(nf=768, nx=3072)
            (act): NewGELUActivation()
            (dropout): Dropout(p=0.1, inplace=False)
          )
        )
      )
      (ln_f): LayerNorm((768,), eps=1e-05, elementwise_affine=True)
    )
    (lm_head): Linear(in_features=768, out_features=50257, bias=False)
  )
)
max_length = 16
num_beams = 4
gen_kwargs= {"max_length":max_length, "num_beams":num_beams}
def predict_step(image_paths):
  images=[]
  for image_path in image_paths:
    i_image = Image.open(image_path)
    if i_image.mode !="RGB":
      i_image = i_image.convert(mode="RGB")
    images.append(i_image)
  pixel_values = feature_extractor(images=images, return_tensors='pt').pixel_values
…
